model.npy (npy, 489280 bytes, 1 tensors)

array f8 [61144]
0.157974432808075 1.112140424332396 -0.3907820611050801 0.1714395697938513 -0.0006879627191151269 -0.0006880109593275948 -0.0008838327756636011 0.02830913415090535
-0.06118154436545198 0.000416145155592091 0.0061123479458368435 0.04739569877568567 0.0006648852816008436 -0.0005753217786434476 -0.0006363500655857988 -0.0006331909802931323
-0.0003915155140809246 0.06134947424162715 0.22259504037738165 -0.00558624222156312 -0.13052187010729713 0.008748181320308732 0.061020214374913784 -0.308610740293892
0.47669077938897503 0.7198027506540365 0.06627526294390249 0.3966797500313351 0.10951824437228955 -0.38121341886130683 0.08353402056680273 -0.0006589517526254169
-0.000869896814029441 0.0008977710745066666 0.0009312640661491187 -0.08491699642197137 0.05041775179465456 0.06882096420845807 0.0003684660530243137 -0.0001196950125207974
-0.0007559235303104424 -9.64617977745972e-06 -0.0009312229577695632 0.0008186408041575641 -0.0004824400367999662 0.000325044568707964 -0.00037657784782117807 4.013604235562169e-05
1.5623144003586418 2.3378781862224134 2.5148295462494534 -0.0701922341362142 -0.02217590458538287 1.0819500219263292 -0.1518135385799093 0.0008437484700462338
-0.0008230149958961611 -0.0006080342751617096 -0.0009095454221789239 -0.0003493393384734713 -0.000222645420621036 -0.0004573019364522082 0.0006574750183038587 -0.0002864933466128214
0.5262134076684235 -0.05331439411160854 -0.0007181515500504748 0.0006043939615080793 -0.012340714331892655 -0.20318786924177962 0.0005444895385933149 -0.0006025686369316551
-0.0009889557657527953 1.6692965454650495 0.1234374609165072 0.0004580143360819746 -0.4704543561615947 -0.013404390150461562 -0.00028306854291145476 -0.0007682618809497406
0.000726206851751187 0.046336168479547524 0.060932958192643605 -0.0008728832994279528 0.5150530786966948 0.5131149592165483 0.0414738743461045 -0.018912975192574774
0.046994659901591435 -5.5570149676101386e-05 -0.0007608115081233966 0.6828216895198077 2.9613582974920605 0.016876882069155108 0.000541934359909122 -1.2408807271218616e-05
4.5465658763988196e-05 -0.00014491796328290076 -0.0009491617465118096 0.292731085227525 -0.21211649674049415 0.0002728208225275608 -0.0003712880378473467 -0.06915279893190251
-0.14197604255841004 -0.03834475274338901 -0.08575463031981911 1.0159626468596628 0.49265271142505257 -0.009356341055555661 -0.0004204970941724639 -0.0006775574254919911
0.0008593953046851462 0.0006162407591288339 0.2752358787299635 0.10970090421416026 0.000607344153798229 0.04368330064215975 -0.06050069645525935 -0.11452126696584183
-0.24645121768703765 -0.14949021826784825 0.5234227550622474 1.0293758867822378 0.991219083423448 -0.048132777247129166 0.0006360295318449862 0.000721461166512687
-0.0009860957389376185 1.590946828031251 0.14004204932141529 -0.09479938804793636 -0.0007602692653326344 0.7820486218627953 -0.0664542843419168 -0.07455133233580785
-0.028369718382510456 0.0004060379177903558 -0.00027274079524141205 0.05054275659514927 0.06196811208351424 0.022211452500772628 0.21253100869846844 -0.05586491637916882
-0.11041483068192165 -0.0009262261052909344 0.00021912866795979367 -0.061090229449208944 0.03399569141308903 2.038921336662504 2.376417917486546 0.060862898170272295
-0.0007102102558175538 -2.1094479444873923e-05 -0.11628267158354863 0.2958904448642153 0.04713435892255141 0.0005232392306574352 0.45270444408441474 0.3049047499576119
1.126538483878957 1.0558241119259275 -0.48916211302653445 7.154936814951691e-05 -0.0008194204598911835 0.0006706049911784759 0.1534313789323277 -0.15330174331913893
0.060647586478693005 -0.6249524105579738 0.06413660244934774 -0.0009668243421442878 0.12575114485434044 0.7214007532482178 0.9938809704280653 0.08754708983552525
0.0003818754762049319 -0.00022652930739892516 -0.21410702679389176 -0.10353468354428277 0.05454755966385144 -0.0007730529575188218 0.44908524413663964 0.9395370299159324
0.46794712273936023 0.059637255193983524 0.06173003189606918 0.09957665359469958 -0.054025012565795553 0.07927552832539059 -0.34225807852816603 0.07659891344444231
0.0008008361143266609 0.03593300267571836 0.021321624594989055 -0.09676249168782533 0.136955661906797 1.8037804552330587 -0.3076863495137234 0.0005597510917152476
0.00028406329230857555 -0.14684800389559577 -0.017724996514104252 0.0007971083770541584 0.19658455928035873 -0.2334400866371019 0.13163018758238432 0.926149306273296
0.07409077619473979 0.16655455725147394 0.15603961059496585 -0.7544962714511666 -0.02574517723662391 -0.0005514613810788804 0.6891940265450894 0.05359860649530605
-0.27973475100831807 -0.02665644051273769 0.00029926579809442925 0.0006984468209883558 0.6586329123787531 -0.08411405728938473 -0.24268152065756282 0.0443677049237788
-0.00046959526463654906 -0.0005120207132418329 0.0009460211095048913 0.1612176991035098 0.5347520657784489 -0.028119833211964623 0.2952291490682494 -0.07947011370090429
0.00015380776925271833 0.08274157242549274 0.04390221739902145 0.4580701131558989 -0.028179635640232722 -0.028794467661084552 0.007281434934307718 -0.0006457786411859022
-0.5386381992836715 0.8018556892341168 0.025930690093659642 -0.00025968259948911125 -0.0009690867669422652 0.2306600308156876 0.13342093985296077 0.043519216991710546
0.528393165720299 0.7828739101354727 -0.12241543278813544 -0.0002298045427961495 -0.20135201231679717 0.21733360959344994 0.5439734172462705 -0.10709666277336168
00000000: 00e6 4197 8138 c43f 4413 f1c1 53cb f13f
00000010: a5d3 13c3 9202 d9bf 97a0 c058 bbf1 c53f
00000020: 6e5d 92b0 0c8b 46bf 96b4 e848 748b 46bf
00000030: 6703 ed6e 20f6 4cbf aec3 6cd5 11fd 9c3f
00000040: 2037 56f8 2f53 afbf 4089 6ad5 c145 3b3f
00000050: a05d 77e8 4209 793f c8de 6cc0 3f44 a83f
00000060: 7eed 2045 76c9 453f 1866 aa1c 26da 42bf
00000070: 274b 395c 17da 44bf 14b4 b746 97bf 44bf
00000080: ecc9 2f54 8aa8 39bf fc39 fdc2 3269 af3f
00000090: 8419 5689 fe7d cc3f 00e9 627a 99e1 76bf
000000a0: 5d05 c3cd f0b4 c0bf f893 5c05 91ea 813f
000000b0: 3034 45a2 0a3e af3f 646c 3043 47c0 d3bf
000000c0: 0df2 f10a 1a82 de3f 6228 34c7 9f08 e73f
000000d0: 8ebb e066 6af7 b03f b9ae 5776 3363 d93f
000000e0: 22f2 e43d 6309 bc3f f98f b3f7 cc65 d8bf
000000f0: 4214 704e 7c62 b53f b4d7 131d b097 45bf
00000100: 2dce fe2e 3981 4cbf de21 c0b3 0c6b 4d3f
00000110: a265 a15a 0284 4e3f 40c5 81ca 1ebd b5bf
00000120: 0e18 3106 5bd0 a93f a0f4 8d2e 409e b13f
00000130: a0af bda5 d525 383f 48b1 36a8 9860 1fbf
00000140: 9695 a46b 25c5 48bf 00a2 86da c03a e4be
00000150: d94e 0f13 aa83 4ebf 5052 92bd 41d3 4a3f
00000160: fa8e 2a2e 009e 3fbf d8ff d6ca 574d 353f
00000170: 0e37 718a edad 38bf c073 1aea f70a 053f
00000180: 73c3 7962 3dff f83f 44db 7e7a f9b3 0240
00000190: 543f 01f4 5e1e 0440 ce57 0c46 1ef8 b1bf
000001a0: 7e51 d0c3 47b5 96bf f447 81d3 aa4f f13f
000001b0: 2037 a543 a06e c3bf 28f5 dd0a e0a5 4b3f
000001c0: 4032 e93e f3f7 4abf 1f36 d0a9 8fec 43bf
000001d0: 568c d6eb d1cd 4dbf b2ef b008 f1e4 36bf
000001e0: a414 b099 bd2e 2dbf 8a9f 88dc 40f8 3dbf
000001f0: 5875 ccd9 4c8b 453f 109a e18d 8fc6 32bf
00000200: 0ee2 1480 bdd6 e03f 8017 3b36 064c abbf
00000210: e696 e4b5 4a88 47bf 1cc6 3726 06ce 433f
00000220: c0d2 b7a3 1646 89bf de2e ab62 0f02 cabf
00000230: e45f 7161 82d7 413f 6674 6b4b b6be 43bf
00000240: c548 f32a fb33 50bf 1592 614b 70b5 fa3f
00000250: 60d8 bcf1 9899 bf3f 04d2 3598 3404 3e3f
00000260: e262 7e96 ec1b debf b86d 8dca c273 8bbf
00000270: 6485 6322 1a8d 32bf aa01 a4d3 a52c 49bf
00000280: 60e4 d556 ddcb 473f 58b3 7bd0 5fb9 a73f
00000290: 7833 5fcd 9a32 af3f 42cd b49c 469a 4cbf
000002a0: fb9a 1698 507b e03f e48c 1d10 706b e03f
000002b0: e0ec e84b 103c a53f cc4c b047 ec5d 93bf
000002c0: 4c5b ba1e af0f a83f 401b cfcd 7f22 0dbf
000002d0: b61d dd45 26ee 48bf d595 2fdf acd9 e53f
000002e0: adbb 7b9e dcb0 0740 b08f 2e62 2c48 913f
000002f0: ec0f 1b2d 13c2 413f 808b 357c ed05 eabe
00000300: 60d3 cd23 4cd6 073f 3805 68d3 a3fe 22bf
00000310: 5207 7754 251a 4fbf aac9 6429 1bbc d23f
00000320: 44a4 3824 a226 cbbf 9020 ab82 2ce1 313f
00000330: ee06 defa 2d55 38bf f0e1 d671 ffb3 b1bf
00000340: c94b cd5d 452c c2bf 921a 0366 eca1 a3bf
00000350: 0046 b4f4 03f4 b5bf 8084 630c 6241 f03f
00000360: 0dce f63c 9f87 df3f e02b c0d6 6a29 83bf
00000370: c217 7d44 c58e 3bbf c03e e87d c333 46bf
00000380: d4bf 2d5d 2129 4c3f 06f9 15f4 6631 443f
00000390: 5b2f 75f2 769d d13f aa02 f1c3 5b15 bc3f
000003a0: d4da 94a3 c5e6 433f 0061 4757 a85d a63f
000003b0: 3035 5281 f2f9 aebf 2695 5008 4451 bdbf
000003c0: de39 03a8 b68b cfbf bc22 44d7 7e22 c3bf
000003d0: b02f df13 e1bf e03f d454 90d9 5278 f03f
000003e0: 9a31 4f15 11b8 ef3f c0bd 4800 dca4 a8bf
000003f0: b0ad ef04 67d7 443f 90e6 c80e 0ea4 473f
00000400: 5ffc c33c fc27 50bf 471b 41a9 8474 f93f
00000410: f43c f3da e5ec c13f 54c1 58cf c544 b8bf
00000420: 58aa bcd0 99e9 48bf de0a d9d4 8a06 e93f
00000430: 5878 ede1 2503 b1bf e469 41ce cb15 b3bf
00000440: 0034 9992 f30c 9dbf 04af ed93 2f9c 3a3f
00000450: 4c9f bccb d4df 31bf fe6f 407d bde0 a93f
00000460: fc4c 96cd 48ba af3f 4593 5958 99be 963f
00000470: d176 df51 3734 cb3f 9442 af89 539a acbf
00000480: ecb0 c576 2544 bcbf a0c8 5b6a bf59 4ebf
00000490: 703d cdec bcb8 2c3f 70d1 2df3 3747 afbf
000004a0: c4f3 a51d e267 a13f 0fa8 60fd b54f 0040
000004b0: 79dd a965 e702 0340 d8b8 5cfa 6b29 af3f
000004c0: 1ff5 37e9 ac45 47bf 4082 e796 811e f6be
000004d0: 36f8 8a7f b3c4 bdbf 2901 f979 deef d23f
000004e0: b839 2ea4 fe21 a83f 9ab3 1bb1 3f25 413f
000004f0: c72b 860f 1cf9 dc3f cda1 5d36 8f83 d33f
00000500: f220 9f37 4d06 f23f 38cd f0d2 a7e4 f03f
00000510: c409 799b 6e4e dfbf 9030 f6c8 98c1 123f
00000520: 8e0d d809 ccd9 4abf 6e01 b940 71f9 453f
00000530: 63e6 58b1 a3a3 c33f ccdc fc3a 649f c3bf
00000540: 38bf 0351 330d af3f 40e4 9c32 9cff e3bf
00000550: c21a ffa1 416b b03f ea2d 1a77 4fae 4fbf
00000560: e7be 4a0f 9d18 c03f fa58 5008 b715 e73f
00000570: 7c5e 0377 dfcd ef3f 2e1c b46f 7c69 b63f
00000580: 6427 73ae ce06 393f 78c9 08ef 0fb1 2dbf
00000590: 3e37 f6ea db67 cbbf 220c d3bf 3f81 babf
000005a0: 686b aa61 a8ed ab3f 68db d695 d654 49bf
000005b0: fab6 2b09 d0bd dc3f 3fd6 1bf6 af10 ee3f
000005c0: fa0f 1b7d d8f2 dd3f ecdb 5c39 c688 ae3f
000005d0: 406c 5928 149b af3f 2065 a206 db7d b93f
000005e0: 67ac 459c 2aa9 abbf 44da 87a9 664b b43f
000005f0: 5a7f 846d 8ee7 d5bf f42b 2784 fc9b b33f
00000600: 1693 d275 e63d 4a3f 88b7 ad7e cf65 a23f
00000610: 940f 5501 56d5 953f ae57 4739 6dc5 b8bf
00000620: 1524 725c c387 c13f 5b3d 06e5 48dc fc3f
00000630: 8492 2516 22b1 d3bf 2428 0051 8857 423f
00000640: 98e8 ea8c ca9d 323f 9273 1b57 eacb c2bf
00000650: d02f 6661 8026 92bf 1298 9534 a11e 4a3f
00000660: c6fc 80ce ae29 c93f e343 d760 5de1 cdbf
00000670: 7495 6a0b 42d9 c03f 4605 b5de 03a3 ed3f
00000680: cf10 b1f4 9cf7 b23f 208a 32e4 a851 c53f
00000690: ec66 3120 1bf9 c33f 3dc6 5a5d d524 e8bf
000006a0: b449 0b99 f15c 9abf 8500 624c fe11 42bf
000006b0: c982 93a1 e00d e63f c65b 04cc 4671 ab3f
000006c0: dfaa c895 2ce7 d1bf 507f eb70 d34b 9bbf
000006d0: e4ec ccd0 d89c 333f 22aa 8720 ffe2 463f
000006e0: 228d 5754 8513 e53f 5a18 31b5 7f88 b5bf
000006f0: 0aad 4825 3010 cfbf cadb 4a23 5db7 a63f
00000700: ca01 d14d 80c6 3ebf 278f ef1b 24c7 40bf
00000710: d0d6 02dd ccff 4e3f fccc 9714 c8a2 c43f
00000720: 8394 3f5d b01c e13f 18b5 0e10 72cb 9cbf
00000730: 12bd 04cd 08e5 d23f 38d3 5a43 2758 b4bf
00000740: 58a7 78ad ee28 243f a04c 963b 8d2e b53f
00000750: 70bf e6f7 597a a63f 0de5 d14e 0551 dd3f
00000760: 1cb5 f355 1fdb 9cbf 0cee a303 4c7c 9dbf
00000770: c0a6 924e 23d3 7d3f 3c05 7a12 2f29 45bf
00000780: 2497 492d 863c e1bf 01e8 2b43 cda8 e93f
00000790: 58f0 a827 938d 9a3f 365c ab45 c004 31bf
000007a0: ead6 49fc 49c1 4fbf 6e82 6c94 4486 cd3f
000007b0: fc90 a2f6 ef13 c13f 6c2f 749b 2648 a63f
000007c0: df5a c6c8 98e8 e03f 4c8d 1d96 4d0d e93f
000007d0: 4cc9 5928 9e56 bfbf 2819 d7fd f51e 2ebf
000007e0: 1a35 f119 e7c5 c9bf 9043 c374 96d1 cb3f
000007f0: 3eea 9ef0 3a68 e13f f550 1fd8 af6a bbbf
