model.pt (torch_old, 256414 bytes, 5 tensors)

weight f4 [1001, 2]
1.9269153 1.4872841 0.9007172 -2.105521 0.67841846 -1.2345449 -0.043067478 -1.604667
-0.7521353 1.648723 -0.39247864 -1.4036071 -0.7278813 -0.5594302 -0.7688389 0.7624454
1.6423169 -0.15959747 -0.49739754 0.43958926 -0.75813115 1.0783176 0.80080056 1.6806206
1.2791244 1.2964228 0.6104665 1.3347378 -0.23162432 0.04175949 -0.2515753 0.8598585
-1.3846737 -0.87123615 -0.22336592 1.7173615 0.31888032 -0.42451897 0.30572093 -0.7745925
-1.5575725 0.9956361 -0.87978584 -0.60114205 -1.2741512 2.122785 -1.2346531 -0.48791388
-0.913823 -0.65813726 0.07802387 0.52580875 -0.48799172 1.191369 -0.81400764 -0.7359928
-1.4032478 0.036003668 -0.06347727 0.6756149 -0.09780689 1.844594 -1.1845374 1.3835493
1.4451338 0.85641253 2.2180758 0.5231655 0.34664667 -0.19733144 -1.0545889 1.2779956
-0.17219013 0.52378845 0.05662182 0.42629614 0.57500505 -0.6417241 -2.2063985 -0.75080305
0.010868144 -0.33874235 -1.3406795 -0.58537054 0.5361881 0.5246226 1.1412016 0.051643595
0.743952 -0.4815844 -1.0494661 0.6038988 -1.722295 -0.82776886 1.334703 0.48353928
-2.5095444 0.48800105 0.78458685 0.028647186 0.6407553 0.5832474 1.0669267 -0.45015338
-0.18526748 0.75275886 0.4047578 0.17846599 0.2649095 1.2731683 -0.0013108636 -0.30360377
-1.4570291 -0.10233524 -0.59915304 0.4770564 0.7261772 0.09115186 -0.3890652 0.5279165
-0.012685479 0.24083632 0.13253537 0.7642406 1.0950097 0.33989096 0.7199675 0.41140762
1.9311606 1.0118638 -1.4364065 -1.1298598 -0.13603453 1.6354096 0.65474075 0.57600456
1.141508 0.018564576 -1.8058051 0.9254349 -0.37534437 1.0330874 -0.68665093 0.63681364
-0.9726739 0.95845777 1.6192005 1.4506098 0.26948154 -0.21037598 -0.73280275 0.10429783
0.3487517 0.96759415 -0.46568844 1.6047972 -2.4801202 -0.41754374 -1.1954538 0.8123369
-1.9005532 0.22857653 0.024859404 -0.34595025 0.2868328 -0.7308424 0.17482026 -1.0939293
-1.6021603 1.3528969 1.2888277 0.052295472 -1.5468504 0.75670606 0.7755195 2.0265355
0.035817612 0.12058873 -0.8056637 -0.20757683 -0.9319478 -1.5909662 -1.1359757 -0.5225976
-0.5187733 -1.5012764 -1.9266542 0.12785123 1.0229133 -0.55579513 0.70427275 0.709876
1.7743884 -0.921551 0.9624499 -0.33701515 -1.1753336 0.35805708 0.4787679 1.3537
0.5260621 2.112038 -0.52075714 -0.9320061 0.18516134 1.0686918 1.3065344 0.45983452
-0.8146269 -1.0212393 -0.49492356 -0.59225166 0.15431595 0.44076708 -0.1482923 -2.3184433
-0.39799532 1.0804863 -1.7808644 1.5080454 0.30942854 -0.50030905 1.0350032 1.6896471
-0.0045050518 1.6667924 0.15392017 -1.060253 -0.5726576 0.08356804 0.39990535 1.9892071
-0.07198751 -0.9060945 -2.0487123 -1.0810555 0.01762308 0.078225985 0.1931583 0.40967342
-0.9291303 0.27619088 -0.5388753 0.46258232 -0.8718891 -0.02711836 -0.35324576 1.4638569
1.2554343 -0.7149558 0.8539193 0.5129912 0.539731 0.565505 0.5057917 0.22245365
00000000: 29a5 f63f 535f be3f 6795 663f dbc0 06c0
00000010: d5ac 2d3f 9105 9ebf 8667 30bd ba65 cdbf
00000020: f08b 40bf 5b09 d33f f6f2 c8be 66a9 b3bf
00000030: 6e56 3abf d136 0fbf a0d2 44bf 9f2f 433f
00000040: 7137 d23f 856d 23be e4aa febe d811 e13e
00000050: e214 42bf 5006 8a3f 4401 4d3f 931e d73f
00000060: 59ba a33f 2ff1 a53f 8847 1c3f b0d8 aa3f
00000070: ed2e 6dbe 000c 2b3d 7ace 80be b01f 5c3f
00000080: fd3c b1bf 5509 5fbf 09ba 64be 80d2 db3f
00000090: 4844 a33e 8d5a d9be 7487 9c3e b24b 46bf
000000a0: 895e c7bf 02e2 7e3f a539 61bf 72e4 19bf
000000b0: 6317 a3bf b6db 0740 1d09 9ebf d9cf f9be
000000c0: 4ef0 69bf af7b 28bf fbca 9f3d 679b 063f
000000d0: 0dda f9be c87e 983f ce62 50bf 066a 3cbf
000000e0: a09d b3bf 9578 133d 5f00 82bd 19f5 2c3f
000000f0: fb4e c8bd a81b ec3f ec9e 97bf 2518 b13f
00000100: 25fa b83f da3d 5b3f f4f4 0d40 2dee 053f
00000110: ac7b b13e 4111 4abe c5fc 86bf 5c95 a33f
00000120: 9c52 30be 0017 063f 48ec 673d 7d43 da3e
00000130: 8833 133f 0848 24bf a235 0dc0 a134 40bf
00000140: 4d10 323c a36f adbe 639b abbf d8da 15bf
00000150: a043 093f ab4d 063f e512 923f 3c88 533d
00000160: a373 3e3f 3b92 f6be e854 86bf 1d99 1a3f
00000170: 2a74 dcbf a9e8 53bf 8cd7 aa3f 7692 f73e
00000180: 609c 20c0 46db f93e afda 483f 81ad ea3c
00000190: 8a08 243f b44f 153f 0e91 883f 817a e6be
000001a0: c2b6 3dbe ceb4 403f 6a3c cf3e cabf 363e
000001b0: 38a2 873e 2ef7 a23f 49d1 abba f471 9bbe
000001c0: ee7f babf 2395 d1bd 1862 19bf bd40 f43e
000001d0: c0e6 393f d4ad ba3d 8e33 c7be 8925 073f
000001e0: c1d6 4fbc cc9d 763e 5ab7 073e 46a5 433f
000001f0: 4729 8c3f 3006 ae3e ca4f 383f 05a4 d23e
00000200: 4530 f73f c184 813f 2bdc b7bf 3f9f 90bf
00000210: a34c 0bbe 1a55 d13f 179d 273f 0975 133f
00000220: ef1c 923f bd14 983c 9f24 e7bf 4de9 6c3f
00000230: 232d c0be 353c 843f 5bc8 2fbf 3806 233f
00000240: 2801 79bf 7d5d 753f f641 cf3f 95ad b93f
00000250: 7cf9 893e cd6c 57be f698 3bbf 1a9a d53d
00000260: 958f b23e 40b4 773f b76e eebe ff69 cd3f
00000270: 4aba 1ec0 4bc8 d5be a104 99bf 50f5 4f3f
00000280: 5445 f3bf f70f 6a3e f3a5 cb3c 6420 b1be
00000290: c0db 923e 7d18 3bbf 1504 333e e005 8cbf
000002a0: 9713 cdbf ba2b ad3f 4ef8 a43f c733 563d
000002b0: 32ff c5bf 7db7 413f 7288 463f c2b2 0140
000002c0: 7db5 123d 39f7 f63d fa3f 4ebf 058f 54be
000002d0: 2294 6ebf c8a4 cbbf a767 91bf f5c8 05bf
000002e0: 54ce 04bf d329 c0bf 9b9c f6bf 6feb 023e
000002f0: d3ee 823f 9748 0ebf 384b 343f 6fba 353f
00000300: 291f e33f c4ea 6bbf 1e63 763f 408d acbe
00000310: 5571 96bf 4253 b73e 1121 f53e 0b46 ad3f
00000320: 01ac 063f a12b 0740 5750 05bf f497 6ebf
00000330: ef9a 3d3e e5ca 883f 853c a73f 6e6f eb3e
00000340: 638b 50bf f8b7 82bf 9f66 fdbe ce9d 17bf
00000350: 0005 1e3e 39ac e13e f0d9 17be 6061 14c0
00000360: 0bc6 cbbe 604d 8a3f 5df3 e3bf a207 c13f
00000370: 6b6d 9e3e 4114 00bf fc7a 843f 5b46 d83f
00000380: 1d9f 93bb 7459 d53f 409d 1d3e 5fb6 87bf
00000390: b099 12bf b825 ab3d 65c0 cc3e 579e fe3f
000003a0: 306e 93bd cff5 67bf 1a1e 03c0 0760 8abf
000003b0: 475e 903c f234 a03d 4acb 453e b7c0 d13e
000003c0: 7cdb 6dbf e468 8d3e bbf3 09bf 97d7 ec3e
000003d0: 2034 5fbf 5327 debc a1dc b4be aa5f bb3f
000003e0: 12b2 a03f 5807 37bf 759a 5a3f 6453 033f
000003f0: d02b 0a3f f0c4 103f 917b 013f e4ca 633e

weight f4 [2, 48]
-4.501696 -4.4258075 -4.4067297 -4.4312673 -4.3245225 -4.514752 -4.372897 -4.434847
-4.5163975 -4.4911776 -4.376449 4.3760686 -4.318219 -4.3325696 -4.514952 -4.470179
-4.4494 -4.5178685 -4.459756 -4.5323687 -4.365672 4.5164256 -4.363734 -4.4691906
4.280548 -4.4696965 -4.4037356 -4.323135 -4.421449 -4.2993994 -4.3492575 -4.402783
-4.4367614 -4.363771 -4.365777 -4.5495234 -4.516174 -4.4304457 -4.36584 4.4659534
-4.4920135 -4.5945487 -4.4538946 -4.4331217 -4.383836 -4.442231 4.5235753 -4.379466
-4.174475 -4.5721235 -4.3695784 -4.172311 -4.5390525 4.197123 -4.5850773 -4.3179617
-4.2247934 -4.4417768 -4.3662515 -4.445054 -4.384627 -4.1826663 -4.545756 -4.3945
-4.3039937 -4.4764647 -4.3852997 -4.3301377 -4.4949217 -4.568148 -4.424309 -4.5034213
-4.38528 4.2258964 -4.469634 -4.4129615 -4.3530946 -4.4086046 -4.3302794 -4.4533734
-4.4435716 -4.3836994 -4.3300505 -4.430424 -4.4955206 -4.564889 -4.0182233 -4.4756093
-4.467688 -4.1979804 -4.387928 -4.3579903 -4.3831854 -4.4590383 -4.484997 4.3969817
00000000: e50d 90c0 37a0 8dc0 ee03 8dc0 f1cc 8dc0
00000010: 7d62 8ac0 d978 90c0 c6ee 8bc0 44ea 8dc0
00000020: 5486 90c0 bab7 8fc0 df0b 8cc0 c108 8c40
00000030: da2e 8ac0 69a4 8ac0 7d7a 90c0 b50b 8fc0
00000040: 7c61 8ec0 6192 90c0 52b6 8ec0 2a09 91c0
00000050: 96b3 8bc0 8f86 9040 b5a3 8bc0 9c03 8fc0
00000060: 40fa 8840 c107 8fc0 67eb 8cc0 1f57 8ac0
00000070: 837c 8dc0 ae94 89c0 1e2d 8bc0 99e3 8cc0
00000080: f3f9 8dc0 03a4 8bc0 72b4 8bc0 b295 91c0
00000090: 7f84 90c0 36c6 8dc0 f6b4 8bc0 17e9 8e40
000000a0: 93be 8fc0 8b06 93c0 4e86 8ec0 22dc 8dc0
000000b0: 6248 8cc0 c226 8ec0 21c1 9040 9624 8cc0
000000c0: 4d95 85c0 d64e 92c0 96d3 8bc0 9283 85c0
000000d0: eb3f 91c0 d54e 8640 f4b8 92c0 be2c 8ac0
000000e0: 8231 87c0 0923 8ec0 55b8 8bc0 e23d 8ec0
000000f0: dd4e 8cc0 67d8 85c0 d576 91c0 be9f 8cc0
00000100: 51ba 89c0 333f 8fc0 6054 8cc0 7d90 8ac0
00000110: 66d6 8fc0 452e 92c0 f093 8dc0 071c 90c0
00000120: 3754 8cc0 8b3a 8740 3e07 8fc0 fb36 8dc0
00000130: 8d4c 8bc0 4a13 8dc0 a691 8ac0 0982 8ec0
00000140: bd31 8ec0 4447 8cc0 c68f 8ac0 09c6 8dc0
00000150: 4edb 8fc0 9213 92c0 4995 80c0 3138 8fc0
00000160: 4df7 8ec0 db55 86c0 e869 8cc0 a874 8bc0
00000170: 0e43 8cc0 71b0 8ec0 1885 8fc0 13b4 8c40

bias f4 [2]
-4.319633 -4.4632597
00000000: 6f3a 8ac0 06d3 8ec0

weight f4 [16016, 2]
-3.9374428 4.871718 4.5834184 4.6701107 -4.2160115 4.4715734 -3.8273633 5.0150714
-4.193458 -4.4872494 -3.7961352 3.8308783 -3.911501 -4.138252 -3.989085 4.396165
-4.942659 -3.9281893 4.104061 -4.3205657 -4.037167 -5.1405616 4.4654737 4.1671567
-3.9209306 -4.873046 -4.004776 -4.0673923 -4.047694 -3.8316214 -4.3230014 -5.0704083
-3.9290912 4.45757 -4.420844 -5.1553187 -4.5954337 -4.8282704 -3.7346613 -4.0000644
-3.904183 4.688461 -4.865094 -4.7817097 4.1394434 -4.766334 -3.8787363 -4.3613343
-3.8711212 -4.4795504 -5.0477486 -4.6854024 -3.9355009 -4.079138 4.6248355 -4.6405025
-5.076754 -4.8551364 -4.0671353 -4.719575 -4.1000657 -4.3910656 -4.7072477 -4.0826397
-4.6655164 -4.4727993 -4.703623 -5.1483297 -4.3507586 -4.372944 -4.7920294 -4.0493135
-5.051637 -5.157145 -4.86359 -4.717379 -4.5218925 -4.6220074 -4.118918 -5.060662
-4.3666196 -4.4230995 -4.263992 -3.8113413 -3.9888911 -4.8139424 -5.003187 -4.6562285
-4.7807727 4.6489906 -4.4177346 -3.943572 -4.17021 -4.597453 -4.427475 4.5154066
-4.519259 -3.872981 -4.9698644 -4.0884786 -4.8771515 3.799979 -4.5796404 -4.1389656
-3.9319534 -4.3965445 -4.506426 -4.4988265 -4.7202787 -4.540178 -4.4884048 -3.8973718
-4.020871 -5.048269 -4.4211407 -4.8842287 -4.54904 -5.0333457 -4.2370377 -4.9332952
-3.726621 -3.9726696 -4.9132786 -5.135413 -4.42204 -4.6528816 -4.223963 -4.9134836
-4.148554 -5.050564 -4.8046026 -4.8542333 -4.1063514 -4.462719 -5.1026406 -4.8837185
-4.757907 -5.130226 -4.390571 -4.328715 -4.5659394 -4.760993 -4.432337 -5.0476284
-4.860153 -4.458451 -3.8220677 -4.6761303 -4.091156 -4.7198534 -4.623622 -5.1423583
-3.8450668 -3.8262353 -4.4254465 4.738376 -3.8488257 -4.1704445 -4.0792165 -5.114752
-5.0865974 -5.019825 -4.2028093 -5.032976 -4.965948 -4.8203373 -5.067956 4.4093637
-4.3479395 -4.8451247 -3.9584363 -4.686581 -4.6247888 -3.9010441 -3.8417099 -4.537444
-4.928042 -4.8287206 -4.3919053 -4.1047797 -4.072584 -4.737483 -5.090696 -5.1000414
-4.6651206 4.4202504 -4.749471 -5.0373654 -4.3972106 -5.0220084 -4.9608874 -5.047683
-4.614132 -3.8459218 -4.1598334 -4.5223055 -4.30627 -4.264609 -4.427018 -5.059053
-4.865118 -4.962887 -4.4563317 -5.1295066 -4.567141 -4.734191 -3.7316217 -3.9400017
-4.0258603 -4.428039 -4.674892 -4.3780704 -4.909399 -4.774867 -4.5803795 -4.654635
-5.1174297 -4.178109 -3.849707 -4.834993 -4.262029 -4.556083 -4.4562864 -4.41465
-3.8182201 -4.40681 -4.876614 -4.7377257 -4.099084 -4.3393874 -4.4215126 -4.546898
-4.70902 -4.7259355 -4.809274 -4.3828335 -4.249965 -3.9690197 -4.58343 -4.4082575
-3.9758277 -4.235607 -4.391055 -4.3489604 -4.41927 -5.0343356 -4.416722 -4.5963416
-3.7913485 -3.8735223 -4.3221226 -3.8721478 -4.797158 -3.9011002 -3.82753 -4.467353
00000000: 10ff 7bc0 1de5 9b40 5dab 9240 8c71 9540
00000010: 91e9 86c0 2117 8f40 85f3 74c0 777b a040
00000020: cf30 86c0 8c97 8fc0 e1f3 72c0 1c2d 7540
00000030: 0856 7ac0 8f6c 84c0 2b4d 7fc0 62ad 8c40
00000040: 432a 9ec0 7467 7bc0 7854 8340 1342 8ac0
00000050: 7930 81c0 7b7f a4c0 29e5 8e40 5959 8540
00000060: 87f0 7ac0 feef 9bc0 2027 80c0 1428 82c0
00000070: b686 81c0 4939 75c0 0756 8ac0 c940 a2c0
00000080: 3b76 7bc0 6aa4 8e40 8e77 8dc0 5ff8 a4c0
00000090: cb0d 93c0 3181 9ac0 b104 6fc0 8700 80c0
000000a0: 22de 79c0 df07 9640 daae 9bc0 c403 99c0
000000b0: 5276 8440 cf85 98c0 373d 78c0 0d90 8bc0
000000c0: 73c0 77c0 7a58 8fc0 2887 a1c0 d1ee 95c0
000000d0: 3fdf 7bc0 4c88 82c0 a7fe 9340 ff7e 94c0
000000e0: c574 a2c0 475d 9bc0 f925 82c0 c206 97c0
000000f0: bd33 83c0 9c83 8cc0 c6a1 96c0 fca4 82c0
00000100: e94b 95c0 2c21 8fc0 1484 96c0 1ebf a4c0
00000110: 6a39 8bc0 28ef 8bc0 4e58 99c0 fa93 81c0
00000120: 03a7 a1c0 5507 a5c0 87a2 9bc0 c5f4 96c0
00000130: 58b3 90c0 7ce7 93c0 2dce 83c0 f1f0 a1c0
00000140: 59bb 8bc0 088a 8dc0 9f72 88c0 04ed 73c0
00000150: fe49 7fc0 d10b 9ac0 1c1a a0c0 d3ff 94c0
00000160: 17fc 98c0 88c4 9440 155e 8dc0 7c63 7cc0
00000170: 5c72 85c0 561e 93c0 e0ad 8dc0 367e 9040
00000180: c59d 90c0 ecde 77c0 2109 9fc0 d1d4 82c0
00000190: a011 9cc0 db32 7340 6a8c 92c0 6872 84c0
000001a0: 20a5 7bc0 7eb0 8cc0 a434 90c0 63f6 8fc0
000001b0: 860c 97c0 2349 91c0 03a1 8fc0 8a6e 79c0
000001c0: faaa 80c0 6b8b a1c0 fc79 8dc0 9a4b 9cc0
000001d0: bc91 91c0 2b11 a1c0 d095 87c0 8edd 9dc0
000001e0: f580 6ec0 3840 7ec0 9439 9dc0 4e55 a4c0
000001f0: 5a81 8dc0 68e4 94c0 b42a 87c0 423b 9dc0
00000200: f4c0 84c0 389e a1c0 4ebf 99c0 e155 9bc0
00000210: 3b67 83c0 98ce 8ec0 d548 a3c0 6c47 9cc0
00000220: c640 98c0 d02a a4c0 8f7f 8cc0 d584 8ac0
00000230: 2d1c 92c0 0e5a 98c0 b4d5 8dc0 2c86 a1c0
00000240: 6086 9bc0 a1ab 8ec0 c29c 74c0 dca2 95c0
00000250: c0ea 82c0 0a09 97c0 b6f4 93c0 338e a4c0
00000260: 9315 76c0 0ae1 74c0 429d 8dc0 c7a0 9740
00000270: 2953 76c0 4874 85c0 f188 82c0 0cac a3c0
00000280: 68c5 a2c0 68a2 a0c0 6a7d 86c0 240e a1c0
00000290: 0ce9 9ec0 3440 9ac0 b22c a2c0 8219 8d40
000002a0: 5222 8bc0 430b 9bc0 0557 7dc0 79f8 95c0
000002b0: 45fe 93c0 b5aa 79c0 93de 75c0 be32 91c0
000002c0: 85b2 9dc0 e184 9ac0 7d8a 8cc0 5b5a 83c0
000002d0: 9c52 82c0 7699 97c0 fbe6 a2c0 8a33 a3c0
000002e0: ab48 95c0 b172 8d40 abfb 97c0 1932 a1c0
000002f0: f3b5 8cc0 4bb4 a0c0 97bf 9ec0 9e86 a1c0
00000300: f8a6 93c0 9523 76c0 5b1d 85c0 bab6 90c0
00000310: f7cc 89c0 ad77 88c0 22aa 8dc0 c3e3 a1c0
00000320: 0caf 9bc0 f8cf 9ec0 459a 8ec0 eb24 a4c0
00000330: 0526 92c0 7e7e 97c0 e4d2 6ec0 fd28 7cc0
00000340: d9d3 80c0 7fb2 8dc0 b798 95c0 2719 8cc0
00000350: cc19 9dc0 b6cb 98c0 7892 92c0 c5f2 94c0
00000360: fcc1 a3c0 12b3 85c0 9961 76c0 43b8 9ac0
00000370: 8b62 88c0 6fcb 91c0 e699 8ec0 d044 8dc0
00000380: b85d 74c0 9604 8dc0 390d 9cc0 739b 97c0
00000390: b22b 83c0 43dc 8ac0 087d 8dc0 3080 91c0
000003a0: 4bb0 96c0 dd3a 97c0 93e5 99c0 2c40 8cc0
000003b0: b7ff 87c0 6b04 7ec0 75ab 92c0 7210 8dc0
000003c0: f673 7ec0 188a 87c0 8683 8cc0 af2a 8bc0
000003d0: a96a 8dc0 4719 a1c0 c955 8dc0 3b15 93c0
000003e0: 74a5 72c0 cae7 77c0 d44e 8ac0 45d1 77c0
000003f0: 5182 99c0 a0ab 79c0 40f6 74c0 8ef4 8ec0

bias f4 [16016]
5.3478613 4.0920477 4.792135 4.428008 4.9539943 4.324813 4.953938 4.23389
4.330943 5.1999655 4.642635 5.263042 4.177819 5.0125113 4.470059 5.156122
4.452783 4.6031027 4.665951 -0.35628527 4.672257 -0.26513448 4.973458 5.123373
4.337035 4.273563 4.7926373 4.641157 -4.737285 -4.8878565 -4.1871943 4.4697533
0.027728848 4.7153554 0.020637708 4.713457 4.3927164 -5.0895095 -0.21974175 -0.41260582
-4.6356874 -5.229798 -5.360833 4.4513583 4.2937665 4.0140886 -0.34771657 5.147442
4.5852284 4.557194 -0.20619054 0.26023424 -4.2267447 -0.074608855 -0.13638286 0.09490791
-4.0715914 4.1564236 -5.0420876 -4.2173038 4.819942 -4.7151995 4.830016 4.816416
-4.049914 -0.107208185 4.4826107 4.6588516 3.9287148 -0.29919267 4.0154047 4.401191
5.090413 -0.29695192 -4.7537045 -4.7478533 -0.012698876 4.312228 -0.2618676 -5.116065
0.19864081 4.5439095 -0.0743258 -0.01353019 -4.872588 -5.087699 -4.801627 -5.1319876
-5.116365 -4.758803 -4.6083145 4.682611 4.7787237 -0.44932455 0.07418239 -0.27193725
-0.112953894 -0.027069932 -4.158714 -4.0784936 -4.0405846 -4.131591 -4.153619 -4.70596
-4.379927 -4.7391114 -5.2596755 4.823265 -0.106274515 -5.011086 -4.1615057 -5.0793223
-5.1531057 5.109951 -0.16860548 4.7623353 0.020692851 -0.2801448 -4.932868 -5.267223
-4.0494943 -4.777521 -4.3659177 -4.6874175 -5.1127462 -5.3656993 -4.141236 -5.377764
0.06566167 5.0513725 0.09429948 4.2236133 3.9916463 -5.371552 -4.8426166 -4.3686705
-4.4352293 -4.405847 -4.174062 -0.19052847 -0.013029778 -0.26678967 0.12678145 4.6733546
0.036973096 -0.070502505 -0.23841266 -4.4317803 -5.3242445 -4.986863 -4.413937 -4.14618
-4.727355 -5.103958 -4.470731 -4.690826 -5.0025315 -4.1113453 -4.735941 -4.038698
4.1272054 -0.017976416 0.029777305 0.0008946699 5.0327907 -5.2853265 -4.7445188 -4.549218
-4.7857995 -5.0736904 -4.8657026 -4.255905 -4.7598014 -4.967525 -4.9473743 -0.3263523
-0.32644963 0.090984695 4.0671506 -0.16181828 -0.2374079 -0.2460365 4.6204677 -5.1786075
-4.2148046 -4.196115 -4.2793727 -4.994383 -5.2238774 -5.090508 -4.9210186 -4.3896356
-4.7985306 -4.1225376 -5.3482785 -4.6628833 -5.2764125 -5.350014 -5.1893435 -4.617621
-5.3303614 -4.778853 -4.9979033 -5.0706034 -4.117888 -4.950184 -5.3590455 4.840786
0.31296554 0.010499642 -0.22735311 4.717626 -0.24096008 -0.29352462 0.028819967 -0.3219412
-5.174504 -4.4367213 -5.1801505 -4.936638 -4.1469336 -5.3233137 -4.682016 -4.9083457
-4.3555126 -4.912318 -4.1642704 -4.496181 -5.0801754 -4.5662255 -4.7119837 -4.7140536
-5.0656013 -4.3549376 4.6738763 -0.13814904 -0.025874307 0.088471204 -0.031205231 -0.15324005
0.15415666 3.950577 -0.32382292 -0.03169901 4.36036 4.7254777 4.4983 4.639808
-0.3513528 -4.3638515 -4.871022 -4.2667136 -5.308334 -4.6221213 -4.919247 -4.4314857
00000000: ae21 ab40 0ef2 8240 2b59 9940 3eb2 8d40
00000010: 1f87 9e40 de64 8a40 a986 9e40 077c 8740
00000020: 1697 8a40 1e66 a640 7790 9440 d76a a840
00000030: b1b0 8540 7e66 a040 b90a 8f40 f4fe a440
00000040: 337d 8e40 9e4c 9340 784f 9540 066b b6be
00000050: 2183 9540 b5bf 87be 9126 9f40 acf2 a340
00000060: fec8 8a40 07c1 8840 495d 9940 5c84 9440
00000070: d797 97c0 5269 9cc0 7ffd 85c0 3808 8f40
00000080: 9c27 e33c 31e4 9640 6910 a93c a4d4 9640
00000090: 2291 8c40 43dd a2c0 fb03 61be 1241 d3be
000000a0: 8d57 94c0 815a a7c0 f28b abc0 8771 8e40
000000b0: 8966 8940 6a73 8040 e807 b2be d8b7 a440
000000c0: 31ba 9240 89d4 9140 9d23 53be 6c3d 853e
000000d0: 7e41 87c0 87cc 98bd f3a7 0bbe 145f c23d
000000e0: 7a4a 82c0 6c01 8540 c858 a1c0 27f4 86c0
000000f0: f73c 9a40 eae2 96c0 7e8f 9a40 1420 9a40
00000100: e598 81c0 f78f dbbd 8c71 8f40 5015 9540
00000110: 1070 7b40 c82f 99be 327e 8040 8fd6 8c40
00000120: aae4 a240 150a 98be 591e 98c0 6aee 97c0
00000130: f20e 50bc c6fd 8940 8313 86be ceb6 a3c0
00000140: 7f68 4b3e b567 9140 2038 98bd bbad 5dbc
00000150: 3eec 9bc0 6ece a2c0 eea6 99c0 3e39 a4c0
00000160: 43b9 a3c0 1d48 98c0 5077 93c0 f3d7 9540
00000170: 4eeb 9840 de0d e6be f0ec 973d 5c3b 8bbe
00000180: 5f54 e7bd c3c1 ddbc 2f14 85c0 0583 82c0
00000190: 784c 81c0 fe35 84c0 72ea 84c0 3997 96c0
000001a0: 5d28 8cc0 cda6 97c0 434f a8c0 3058 9a40
000001b0: 74a6 d9bd d15a a0c0 0e2b 85c0 cf89 a2c0
000001c0: 3ee6 a4c0 b884 a340 eaa6 2cbe 0d65 9840
000001d0: 0e84 a93c 246f 8fbe 0eda 9dc0 178d a8c0
000001e0: 7595 81c0 74e1 98c0 99b5 8bc0 53ff 95c0
000001f0: 9e9b a3c0 cfb3 abc0 0185 84c0 a516 acc0
00000200: a079 863d d8a4 a140 1620 c13d d727 8740
00000210: 2277 7f40 c1e3 abc0 b7f6 9ac0 26cc 8bc0
00000220: 66ed 8dc0 b3fc 8cc0 ea91 85c0 e519 43be
00000230: da7a 55bc a898 88be ffd2 013e 1f8c 9540
00000240: 1a71 173d 9e63 90bd 7322 74be 25d1 8dc0
00000250: 3660 aac0 6294 9fc0 f93e 8dc0 82ad 84c0
00000260: 7e46 97c0 a053 a3c0 3a10 8fc0 3f1b 96c0
00000270: bd14 a0c0 2490 83c0 d48c 97c0 043d 81c0
00000280: 1112 8440 4743 93bc 89ef f33c 4888 6a3a
00000290: 9f0c a140 6521 a9c0 19d3 97c0 3293 91c0
000002a0: 4525 99c0 ac5b a2c0 d6b3 9bc0 6030 88c0
000002b0: 4b50 98c0 f7f5 9ec0 e450 9ec0 a617 a7be
000002c0: 6824 a7be 2f56 ba3d 1926 8240 b1b3 25be
000002d0: 0e1b 73be fef0 7bbe dfda 9340 27b7 a5c0
000002e0: aedf 86c0 9346 86c0 9ff0 88c0 fcd1 9fc0
000002f0: 012a a7c0 71e5 a2c0 fc78 9dc0 e577 8cc0
00000300: 908d 99c0 d4eb 83c0 1925 abc0 5736 95c0
00000310: 5fd8 a8c0 5133 abc0 1a0f a6c0 8dc3 93c0
00000320: 5292 aac0 5dec 98c0 d3ee 9fc0 6242 a2c0
00000330: bdc5 83c0 e867 9ec0 4d7d abc0 b8e7 9a40
00000340: 053d a03e b106 2c3c 41cf 68be cbf6 9640
00000350: 3dbe 76be dc48 96be da17 ec3c 7ad5 a4be
00000360: 8995 a5c0 9ff9 8dc0 cbc3 a5c0 f0f8 9dc0
00000370: aeb3 84c0 9658 aac0 13d3 95c0 2b11 9dc0
00000380: 5c60 8bc0 b631 9dc0 b441 85c0 b7e0 8fc0
00000390: cc90 a2c0 851e 92c0 92c8 96c0 87d9 96c0
000003a0: 6819 a2c0 a65b 8bc0 6590 9540 f176 0dbe
000003b0: 5bf6 d3bc 6430 b53d 1da2 ffbc f6ea 1cbe
000003c0: 3edb 1d3e 41d6 7c40 1ecc a5be d2d6 01bd
000003d0: 1288 8b40 1d37 9740 13f2 8f40 4f79 9440
000003e0: 84e4 b3be aca4 8bc0 6adf 9bc0 eb88 88c0
000003f0: dfdd a9c0 6be8 93c0 796a 9dc0 bbce 8dc0
